Model V4 Built
Model V4 Compiled
Model: "sequential"
_________________________________________________________________
 Layer (type)                Output Shape              Param #   
=================================================================
 conv1d (Conv1D)             (None, 2156, 128)         768       

 batch_normalization (BatchN  (None, 2156, 128)        512       
 ormalization)

 max_pooling1d (MaxPooling1D  (None, 1078, 128)        0
 )

 conv1d_1 (Conv1D)           (None, 1074, 256)         164096

 batch_normalization_1 (Batc  (None, 1074, 256)        1024
 hNormalization)

 max_pooling1d_1 (MaxPooling  (None, 537, 256)         0
 1D)

 dropout (Dropout)           (None, 537, 256)          0

 flatten (Flatten)           (None, 137472)            0

 dense (Dense)               (None, 1)                 137473

=================================================================
Total params: 303,873
Trainable params: 303,105
Non-trainable params: 768
_________________________________________________________________
None
Epoch 1/3
2101/2101 [==============================] - 2719s 1s/step - loss: 1.6784 - accuracy: 0.8333 - val_loss: 1.2448 - val_accuracy: 0.8092
Epoch 2/3
2101/2101 [==============================] - 2157s 1s/step - loss: 0.4378 - accuracy: 0.8880 - val_loss: 0.3312 - val_accuracy: 0.8909
…
